models/route_gnn_model.pth (torch, 99663 bytes, 11 tensors)

conv1.bias f4 [64]
00000000: 2d1c a8bc 0000 0000 2498 023b 27d6 2a3c
00000010: 0000 0000 0000 0000 2384 24bc b7eb 56bd
00000020: cd30 9f3c 0000 0000 1c24 883b d0a4 9ebb
00000030: 0000 0000 b029 7cbc 0000 0000 0000 0000
00000040: b246 c5bb 0000 0000 72bd 03bd 4d9f 38bc
00000050: 0000 0000 0000 0000 0e58 69bd 166b 513c
00000060: 1538 00bd 0000 0000 0000 0000 6e8c b63b
00000070: 2ae2 4c3c 63d7 273c f37d 47bc ab9f 33bd
00000080: efbd e73b be63 b6bc 0000 0000 0000 0000
00000090: 0000 0000 51ea 0f3b 0000 0000 f7b1 393a
000000a0: 0000 0000 0000 0000 0000 0000 0000 0000
000000b0: 0000 0000 0000 0000 0cc1 00bd 0228 103b
000000c0: c9f9 acbb 2c78 0bbd 0000 0000 0000 0000
000000d0: 2ad3 8ebc 0000 0000 1124 473c 0000 0000
000000e0: f816 30ba 0000 0000 3767 c8bc 0000 0000
000000f0: 0b6a 953b 667a 3bbd 512e 703c ee3d 1dbd
-0.020521248 0.0 0.0019927109 0.010427034 0.0 0.0 -0.0100412695 -0.05247089
0.01943245 0.0 0.004154695 -0.0048414245 0.0 -0.015390798 0.0 0.0
-0.0060203904 0.0 -0.03216309 -0.011268449 0.0 0.0 -0.05696874 0.012781879
-0.031303484 0.0 0.0 0.0055709397 0.012505094 0.010244223 -0.012176025 -0.043853443
0.0070722024 -0.022264358 0.0 0.0 0.0 0.0021959732 0.0 0.0007083709
0.0 0.0 0.0 0.0 0.0 0.0 -0.031434104 0.0021996503
-0.0052788 -0.03405015 0.0 0.0 -0.017434675 0.0 0.012154595 0.0
-0.000671729 0.0 -0.02446328 0.0 0.0045597604 -0.045771025 0.01465948 -0.03838914

conv1.lin.weight f4 [64, 6]
00000000: 9ecb e53d 636c b6bd e1e3 60be 9ad1 9d3d
00000010: e4e7 353e 254d 44be f46e 89be 40ab 853c
00000020: 28c4 0a3d 86c9 86be c1c9 3cbe 0cfb fe3d
00000030: a0ec 12bc 6324 63be b403 94be ac3e 7d3e
00000040: 71cf d6bc 21ca 063e 2503 be3d 712f 37be
00000050: e590 893e 9d5c e23d cdb2 1f3e bf90 1dbe
00000060: 0030 2eb9 1c64 3d3e c8b3 79bd 9653 8dbe
00000070: 64fa 093e ccac 8a3e 364f c1bd 5c35 373e
00000080: 22a2 65be c67f bdbd 1677 163e 00d4 f5ba
00000090: ca3a 113e 21b5 3fbe af59 b93d 4c78 9a3b
000000a0: 4e97 213e fe44 90be 3943 473e aa68 113e
000000b0: 58c7 b9bc ca94 33be 2ce1 693e fa1a edbd
000000c0: 4053 e1bd 362b 67be c1a0 d5bd e357 32be
000000d0: 782a 313e edaf 2dbe fa80 90bd 4c84 933e
000000e0: fc08 11be 9cc7 9d3d 00a8 2e3b e0a1 603e
000000f0: 33eb 043e 03ca 7dbe 68b6 103e 9954 b6bd
00000100: ca96 acbd a85b da3c f1e8 4cbe e647 0bbd
00000110: 6c7f f436 0ba1 333e 2dc7 bc3c 8cfc 6e3e
00000120: d4eb 783e 4aae 893e 405a 133e b0a0 11bd
00000130: 50dd b33c daab 64be ea04 e8bd 07de a3bd
00000140: 6b21 51be 6227 40be bef2 6e3e 0c5b 9c3e
00000150: 102e aabc 40ad 843e b00f 74be 5650 953e
00000160: e4cf a63d b021 81bc 80a6 24bc aa8e 8e3e
00000170: 8514 23be 2a9f fcbd 9c87 1e3e a0a3 0e3c
00000180: e69a 3b3e 2dd7 6cbe 2e19 703d 9a90 32be
00000190: 0f2c 093e ad56 51be e09f 4e3c 4e1a 073e
000001a0: 0800 55be ec67 663e 8cac 62be a07e 5cbc
000001b0: 7683 283e 09e6 19be 8383 ddbc 1965 e13d
000001c0: f1b2 90be 27df 75be a21b b53d b6c0 21be
000001d0: f1d5 57be 83b7 123e 80c4 0a3e de49 76bd
000001e0: 9078 2d3d 1cd2 bb3d d8be 5c3d 904d 6d3e
000001f0: 0082 653e 0eb4 3e3e 40d4 5c3d a0f0 983d
00000200: 3a0c 423e 505a 693e 1800 863e f237 8abd
00000210: d406 56be 10c2 e5bd 903c 16be 3913 653d
00000220: 009e 36be 3b05 18bc aa24 2c3e 83b9 84be
00000230: 5e02 53bd 8b3b 403d b261 d6bc cf52 453e
00000240: 49df 763d cfd0 773d c1ef 0ebe a751 50be
00000250: a67d 5a3e d02b 03be a492 97bd 7892 6a3e
00000260: 8e11 93be 2eb5 08be 52a4 66be 00da adbd
00000270: 0055 6fbe 4084 e5bb 688b 2dbd 805c b0bc
00000280: b05c d03d e388 2fbe 2387 163d 27e3 9ebd
00000290: b4c4 96bd e3a9 aabc 5c6a 4abe 931a 153e
000002a0: 2350 483e 409e 86be 89db 23bd 3817 873d
000002b0: 4b55 363e 3c54 0f3e ccc0 693e c74d 9d3d
000002c0: aaf2 78bd 5c3a 393e 5f47 b3bd c577 ec3c
000002d0: ed4f ffbd 115c a9bd 64c4 eb3d 48eb 293d
000002e0: fcd5 8bbe 8a9e 8b3b 3d3b 863d 708b 44bd
000002f0: f3d5 033e a486 773d 6147 89be c9f8 3cbe
00000300: 7bf3 293e 5361 8b3d 4b0d 793d 4358 2bbe
00000310: 36b1 0ebe 15da 97be 9b89 3a3e 897a 32be
00000320: ccca 383e 1e2a 92be 8705 4bbe 43f5 7fbe
00000330: 3d88 90be b8d8 c73d fa71 1c3e dc0c af3d
00000340: 3251 64be dcf3 32be e98f 6bbe 28ad 783e
00000350: 44cf 05be 1033 6ebd 18c4 763e 68d0 16be
00000360: 78f8 d83d 9e48 003e 8e4e 05be a6bb 113e
00000370: 1083 75bd 46cc 0fbe f724 90be d052 65be
00000380: e7f2 69be 8d30 0d3e 4c03 973e 0fa2 babd
00000390: 2066 5dbe 6468 8a3d aa57 65be a673 8ebe
000003a0: 2f2a 4abe 60e7 703c 4ff3 b8bd 5b99 fabc
000003b0: 2b01 80be 53ab 8abe f603 613e cae6 363e
000003c0: b835 fd3d b66c 883e 20fd 86be a098 2a3c
000003d0: ac8c 853d ba41 a9bd 7059 f53d 90b0 863e
000003e0: b4d7 e63d 9dfa 0dbe 905f f3bc d95b 87be
000003f0: 44dc dd3d 9a21 373e a880 933e 1636 33be
0.112204775 -0.08907392 -0.21961929 0.07705994 0.1776424 -0.19170053 -0.26842463 0.01631701
0.033878475 -0.26325625 -0.18436338 0.12450227 -0.008967549 -0.22181849 -0.28909075 0.24730939
-0.026221963 0.13163044 0.092779435 -0.17889191 0.26868358 0.11052821 0.15595551 -0.15387248
-0.00016611814 0.1849522 -0.06096247 -0.27602834 0.13474423 0.2708496 -0.094389364 0.17891449
-0.2242513 -0.092528865 0.14693865 -0.0018755198 0.14182582 -0.18721439 0.09050309 0.0047140475
0.15780374 -0.28177637 0.19459237 0.14200082 -0.022678062 -0.17537227 0.22839803 -0.11577411
-0.11002207 -0.22575077 -0.10431052 -0.17416339 0.17301357 -0.16961642 -0.0705585 0.28811872
-0.14163584 0.07704088 0.0026650429 0.2193675 0.12980346 -0.24784093 0.14132082 -0.089028545
-0.08427198 0.026655033 -0.20010735 -0.034004115 7.2866005e-06 0.17541902 0.023044193 0.23338526
0.24308711 0.26890785 0.14389896 -0.035553634 0.021956116 -0.22331181 -0.11329062 -0.08001333
-0.20422904 -0.18765023 0.23334786 0.30538213 -0.020773917 0.2591343 -0.2383411 0.29162854
0.08145121 -0.015763134 -0.010049462 0.2784322 -0.15925796 -0.12335046 0.15481418 0.008706003
0.18320808 -0.23128958 0.058617763 -0.17437974 0.13395713 -0.2044322 0.012611359 0.13193628
-0.20800793 0.2250058 -0.22136134 -0.013457924 0.16456398 -0.15029158 -0.027040249 0.11005611
-0.2826152 -0.24010907 0.08843161 -0.1579617 -0.21077706 0.14327817 0.13551521 -0.06012904
0.042351305 0.091709346 0.05389294 0.23174119 0.22412872 0.18623373 0.053913355 0.074677706
0.18949977 0.22788358 0.26171947 -0.06748952 -0.20901042 -0.11218655 -0.1467154 0.055926535
-0.1783371 -0.009278591 0.16810861 -0.25922784 -0.05151593 0.046931785 -0.026169632 0.1926987
0.060271535 0.06050187 -0.13958646 -0.20343648 0.21336994 -0.12809682 -0.07401016 0.22907436
-0.2872433 -0.13350365 -0.2252362 -0.08488846 -0.23372269 -0.007004291 -0.042369276 -0.021528482
0.10173929 -0.17142062 0.03674997 -0.077581696 -0.07361737 -0.020832961 -0.19767135 0.14560919
0.1956182 -0.2629261 -0.040004287 0.065962255 0.17805974 0.13996977 0.22827452 0.076808505
-0.060778297 0.18088669 -0.08753847 0.028865704 -0.124664165 -0.082695134 0.11512068 0.041484147
-0.27311695 0.0042608427 0.065542676 -0.04798454 0.12874584 0.060431138 -0.2681227 -0.18454279
0.16596787 0.068056725 0.060803693 -0.16732888 -0.13934788 -0.2965857 0.18216555 -0.17429556
0.18046111 -0.28547758 -0.19826327 -0.24995904 -0.28228942 0.09758133 0.15277854 0.085473746
-0.22296599 -0.17475837 -0.23004116 0.24284804 -0.13067347 -0.058154166 0.24098241 -0.14727938
0.10594267 0.12527701 -0.13018247 0.14231738 -0.059939444 -0.14042768 -0.28153202 -0.22394872
-0.22846566 0.13788052 0.29494703 -0.091129415 -0.21620989 0.06758192 -0.22396722 -0.27822608
-0.19742654 0.014703602 -0.090307824 -0.030590704 -0.2500089 -0.27083835 0.21974167 0.17861477
0.12363762 0.2664544 -0.26364994 0.010412365 0.06520972 -0.082644895 0.119799495 0.26306581
0.11271611 -0.13865133 -0.029708654 -0.26437262 0.10833028 0.17883912 0.28809094 -0.17501101

conv2.bias f4 [64]
00000000: 97e3 cbbb 1be8 26bb 98e8 c5bc 0a52 14bd
00000010: e495 93bc 6feb 0f3b bc08 2abb 0000 0000
00000020: 454c 9c3c 53f3 48b9 a8f9 27bd c296 23bc
00000030: 0000 0000 d51e 9bbc a1c8 883c 29af ee3c
00000040: 905f 28bc 8ff8 43bc 6862 a1bc 0b19 703c
00000050: 28af 783c 7efd ab3c 98a4 9e3c 6dee 6ebb
00000060: c001 49bb 930b 193c c781 50bc 70b1 8a3c
00000070: 7b0e f5bb 7cba 1e3b 17dd e5bb dc45 e9bc
00000080: 7f24 4cbc 30a5 093c 15aa ccbc e391 203a
00000090: 837a 85bb f877 cd3b 0fee 413b 426d a7bc
000000a0: 49dd 8f3c 6d68 9cbc b215 5dbc c033 28bd
000000b0: b476 88bc dfb7 553b 6426 55bc 2f2b 20bc
000000c0: fd6a 2bbd 647a bd3b 00a0 07bb 44f3 a93c
000000d0: 4502 d53c ebbe 98bc 4862 4abb 7067 24ba
000000e0: 6a76 d7bb 1c77 2ebd e698 553a 35eb c33a
000000f0: 1f84 333c 8452 b53b 2e6a fc3b 3d72 f83c
-0.006222199 -0.0025467935 -0.02415876 -0.03621105 -0.01801581 0.0021960398 -0.0025945147 0.0
0.019079337 -0.00019164132 -0.041009575 -0.009984674 0.0 -0.0189356 0.01669723 0.029136257
-0.01027669 -0.011961116 -0.019700244 0.014654408 0.015178479 0.020994898 0.019365594 -0.003645803
-0.003067121 0.009341138 -0.012726254 0.016930312 -0.007478533 0.002422004 -0.0070148814 -0.028475694
-0.012459873 0.0084012 -0.024983445 0.00061252544 -0.0040734424 0.006270405 0.0029591357 -0.02043784
0.017561572 -0.019092763 -0.013493942 -0.041064978 -0.016658165 0.0032610816 -0.013009641 -0.009775921
-0.04185008 0.0057824124 -0.0020694733 0.02074588 0.026002059 -0.018645724 -0.0030881334 -0.0006271517
-0.0065753954 -0.04259406 0.0008148089 0.0014947416 0.010956793 0.0055335183 0.0077030873 0.03032791

conv2.lin.weight f4 [64, 64]
00000000: 8715 363c b0a9 4dbd 84e5 dfbd 08b0 d63d
00000010: 30e6 34be 605e 85bb 9d05 413d 8f41 1d3d
00000020: 2c4f afbd d81b 2fbe d863 3dbe 0c52 29be
00000030: eba2 3abe 1185 4b3e 3b75 143e 5862 93bd
00000040: 6eda 60be 0054 08bb 13c2 cabd 1180 a93c
00000050: 6bba 363e f60d 833d ac3f d0bd 994f 8ebd
00000060: 03fd 37be 6cf1 13bd 766c da3d b511 ffba
00000070: 70c0 a23c f9df 8b3d 1554 423e 0e4e 1bbe
00000080: 93dc 2cbc 9a7e da3d 05e9 3e3e 7c64 5abd
00000090: c099 693b b313 20bd 9d78 1fbe b347 a93d
000000a0: d121 07be 5da7 e5bd b4c2 9bbd 1a64 c73d
000000b0: 08dd b53c 63e8 013e 2756 96bd ceb6 5cbe
000000c0: a703 0abe 0b5d 313e 1b9b 063e 4431 093d
000000d0: 6264 023c 0793 3ebe b73a 0b3b 701a f8bd
000000e0: 7cfa 473e f096 cf3c f41b ad3d 3638 953d
000000f0: 0417 5bbe 7ef2 853d ae96 20be c32c 3dbd
00000100: 40d9 64be 0263 c4bd 5ba6 05be cacb 973d
00000110: 80eb 21bb 1cc4 73bd e927 323e cdd8 6a3d
00000120: 6155 b13b b229 823d ce7a 1cbe b4a9 f9bd
00000130: 83c5 023e ee4e 01be 7ef5 9b3d ccec 0dbe
00000140: 9098 46be 0f78 0d3e e183 9b3d 0108 033d
00000150: 348b a1bd 705a 1e3c 7104 07be 5d87 21bc
00000160: 10d6 dd3d 8af5 d73d 28c0 f23c f47b 33be
00000170: ba53 fbbd 389b 0c3e e33b 143e cfe4 f23c
00000180: 09cf 89bd 3005 943d e1ed 083e 98cc 07be
00000190: 8ad9 8cbd e834 083d 5044 66bd 5b2d 013e
000001a0: 402f 1dbe 6267 bbbd 527d 863d e765 563e
000001b0: a485 0cbd 797e c1bd c0f0 61bc f461 3ebe
000001c0: debc 0fbe ff19 3ebe a923 273e df01 43be
000001d0: 5fdf 3cbe 8d95 1fbe cdf5 933c fac2 c23d
000001e0: a568 39bd 4491 1cbe bd46 b63d 3883 89bd
000001f0: 328b cc3d 13fc 40be ef87 f23d 9fa8 3bbe
00000200: 9c9a f1bc 11fb 3dbe 51d8 0b3e 2a9c 59be
00000210: 6881 0dbd 9206 c23d c4b0 49be 8141 0bbe
00000220: ed1b bbbd 2ca4 a7bd 9dfe b53d b403 26bd
00000230: fb4a 3b3e 3053 fbbd ca3f 873d ec18 533d
00000240: 7456 26be 9c0b d2bd 8bbd 3f3e 7910 ba3c
00000250: 5283 a0bd c20f aa3d eeaa 363e 8922 4b3d
00000260: 89e4 883c 6a6b d7bd 880c 95bc e799 a9bd
00000270: a729 073d 60f5 2b3e 65ac e2bc 793d 243e
00000280: 8a6a fbbc 442d 0c3c 5fd0 fbbd 5a55 57be
00000290: c6d5 e4bd 890f 103e 8238 a93d dbdc a13d
000002a0: 00b5 cb3b 9a24 e13d 8fa2 c8bd cc4d 54be
000002b0: 0b5e 01be 16e2 b0bd f87d 9c3d 0a28 413d
000002c0: e4a0 5ebe 71ae cf3d 9422 713d abb9 043e
000002d0: 0596 d0bd 0433 49bd 4517 d8bb 3a21 2fbe
000002e0: 40c4 553d c0d1 a5bb d8c4 443e 06a3 f5bd
000002f0: e1b3 4abe f8de 1bbe 86e5 1abe 280a af3d
00000300: ef2c 4d3d 13b7 403e 2470 5f3d bc97 b3bd
00000310: bb3e 4bbe 689b 21bd 4d16 6dbd 6082 21bc
00000320: 0615 b83d 9eae 35be 73f8 f2bd a6ca 39be
00000330: d89b 73bd 1fac b93d 989d 6dbd f8c7 c5bc
00000340: 36d9 c0bd dd1a 3c3e 365e 313d 8172 bfbd
00000350: 7813 2bbd 74f7 37be baec 9ebd d800 cebd
00000360: 6019 253e 64b8 bfbd 1196 5a3e 9dce db3b
00000370: 321d 44bd 5581 a7bc 4d64 d23c 9088 f33d
00000380: 92f7 e73d f2e5 c43b 6b16 2e3e a6a0 f9bd
00000390: c702 323e c671 0fbd 7b74 04be a131 743d
000003a0: a24b 94bd ea6c 843d 2ab9 9d3d 9f08 583e
000003b0: 0d98 3e3e ed75 0ebe 7666 283e 9d53 a1bd
000003c0: 33cf 103e 9513 43be 5358 0fbe 1e57 9ebd
000003d0: 49bf 6fbe 7c4d 56bd 018d 5fbe 464d 9fbd
000003e0: d830 083e 436b 18be 7e45 293e 8236 cc3d
000003f0: 277a 17be e56b f93d 9bd0 12be 39c1 1a3d
0.011113531 -0.050210655 -0.109324485 0.10482794 -0.17665935 -0.0040700883 0.047124494 0.0383926
-0.08560023 -0.17100465 -0.18495119 -0.16535205 -0.18226211 0.1987498 0.14497845 -0.07196492
-0.21958324 -0.002080202 -0.09900298 0.02069095 0.1784455 0.06399147 -0.101683944 -0.06948776
-0.1796761 -0.03611891 0.106652185 -0.0019460233 0.019867152 0.06829829 0.18977387 -0.15166494
-0.010550636 0.106686786 0.18643577 -0.053318486 0.003564462 -0.039081287 -0.15573354 0.08265629
-0.13196494 -0.11213563 -0.07605496 0.0973589 0.022200122 0.12686305 -0.07340651 -0.2155411
-0.13477956 0.1732065 0.13145106 0.03349425 0.007958503 -0.18610774 0.0021244714 -0.121144176
0.19529146 0.025340527 0.08452597 0.07286112 -0.21395499 0.06540392 -0.1568248 -0.046185266
-0.223485 -0.09589197 -0.13051741 0.074119166 -0.002470702 -0.059513196 0.17398037 0.057335664
0.0054117893 0.06355609 -0.15281221 -0.121905714 0.12770657 -0.12627766 0.07615183 -0.13859862
-0.19394135 0.1381533 0.07593513 0.031990055 -0.07887879 0.009665117 -0.13185288 -0.009858933
0.10831845 0.1054488 0.029632643 -0.17527753 -0.12271829 0.13731086 0.1447597 0.02965012
-0.06728942 0.07227552 0.13371994 -0.1326164 -0.0687743 0.03325358 -0.05621749 0.12614958
-0.15350056 -0.09150578 0.06566872 0.2093731 -0.034307137 -0.09447951 -0.013790309 -0.18592054
-0.14036891 -0.18564604 0.16322197 -0.19043683 -0.18444584 -0.15584393 0.018061543 0.09509845
-0.045265812 -0.1528979 0.08900211 -0.06714481 0.09987487 -0.18846159 0.118423335 -0.18326043
-0.029492669 -0.18552805 0.13656737 -0.21250978 -0.03454724 0.094739094 -0.19696337 -0.13599207
-0.09136186 -0.0818561 0.08886454 -0.040530875 0.18290322 -0.12271726 0.06603964 0.05153744
-0.16243917 -0.102561206 0.18724649 0.022712933 -0.07837547 0.08303787 0.17838642 0.049593482
0.016710537 -0.105185345 -0.018194452 -0.08281308 0.032998707 0.16792822 -0.027670095 0.16039075
-0.03069045 0.008555714 -0.12295603 -0.21028653 -0.111735865 0.14068426 0.08262731 0.07903453
0.0062166452 0.10993309 -0.097966306 -0.20732802 -0.12633531 -0.086368725 0.07641214 0.047157325
-0.21741062 0.10140694 0.058870867 0.12961452 -0.10184864 -0.049120918 -0.006594571 -0.17102519
0.05218911 -0.0050604045 0.19215715 -0.11993985 -0.19795181 -0.15221775 -0.15126619 0.08546859
0.05009168 0.18819837 0.054550305 -0.087691754 -0.19848149 -0.039454848 -0.057882596 -0.009857744
0.08988385 -0.17742392 -0.11863794 -0.1814371 -0.059474796 0.090660326 -0.05801162 -0.024143204
-0.0941643 0.18369623 0.043302737 -0.09348012 -0.041766614 -0.1796549 -0.07759996 -0.10058755
0.16122961 -0.093613416 0.21346308 0.00670798 -0.047879405 -0.020447413 0.025682593 0.118912816
0.11326517 0.006008857 0.1700074 -0.121888444 0.17383872 -0.035020612 -0.12935059 0.059617642
-0.07240988 0.06466086 0.07701333 0.21097039 0.1861269 -0.13912173 0.16445336 -0.07877276
0.1414154 -0.19050439 -0.13998537 -0.0773146 -0.23412813 -0.05231999 -0.21831132 -0.077784106
0.13299882 -0.14884667 0.16530415 0.09971334 -0.14792691 0.121787824 -0.14337389 0.037781928

conv3.att_src f4 [1, 4, 64]
00000000: 6eed 8c3e 8b1c 9c3e 1492 a639 94f3 7dbe
00000010: ef8d 2ebe aeef 35be b8c5 743d 9175 383e
00000020: 9a5e 6cbe 95ae 0bbe 85a0 65be cd00 1cbc
00000030: 7cad a83d 524e 9d3e c35c 8b3e 4742 5d3e
00000040: ec9e cabd 224a 95bd aacd 88be 0fc6 4abe
00000050: 0678 283e be7a 883e 2515 463e 9a79 bbbb
00000060: 565a ea3d 0bad c5bd 1767 babd 501e a3be
00000070: 5f7d 49bd 3279 1b3e 867c 373e 1c8f 1ebe
00000080: 11a7 79bd 27f4 3f3e 2a38 793e c056 a73d
00000090: d75b 88bd c2dd babc 3ca2 3e3e 00ca 623e
000000a0: 98ed 2dbe 95ce dc3d 7188 82be 1248 653e
000000b0: e640 16bd 4683 5c3c 0502 7e3e 6c2d 253d
000000c0: fa2b 733e e236 833d 8db4 e83d 58ad 84be
000000d0: fc13 40be b599 d03d 8f66 f23b df7c 163e
000000e0: 8bc2 d23d c512 82be cbea 55bd 23f9 2dbe
000000f0: 5f5d afbd c3ac c6bd 11e4 1dbd adbb f73b
00000100: 77a8 f03c 5df8 0b3c 4ce8 04be de42 cc3d
00000110: 46a0 b3bd a1ec 2f3e ff89 cf3d d83b 773e
00000120: 7a31 4e3e 6f16 4abd 12ac c53d f495 74b8
00000130: fc06 823e 693a eabd 8ff5 883e 4173 7a3e
00000140: c47e 893d 6c1d 16be 1f01 443e 3327 8fbe
00000150: 03a7 72be 84c0 00be 37d0 dfbd c58c 673e
00000160: fd1d 453e d170 323e dd7a 3e3e b5b4 983e
00000170: 59a3 ca3d 1420 02be e9ee 0f3d 572c 9a3d
00000180: 32e3 293e 2288 e1bc bab9 ea3d 3187 423e
00000190: 6fdf d03b cd6d 8e3e 3e5d 1c3d db62 7f3e
000001a0: 892c f6bd 2ca6 f23c 6035 b83d 1ff7 40be
000001b0: 8418 8bbb d31d cebc d4e5 7a3d 3746 f5bc
000001c0: 3ccb 163e ecb1 b8bd c4f7 dabd b56d 0a3e
000001d0: 45a0 2dbe 8d3b 263e 1d70 8ebe c7a7 783d
000001e0: 1532 823e 53c1 19be 1442 2c3e 97d3 6e3e
000001f0: 3d38 66be fcc6 3ebe 72c3 8fbe 7b0e 513b
00000200: 0956 6cbe 48f2 ba3c 4add a4bd 48a2 193d
00000210: 7eb7 51bd 3f25 093c d842 183e 518c 393d
00000220: 9019 65be d5ae 8f3d fb7c 96bc cd15 44be
00000230: 4863 903e a8e9 ed3d ed05 9ebd 3d3e 373e
00000240: 8b78 2cbe f75a 2bbc 719e 6fbd ab7d 9c3e
00000250: 096a 223e 5453 10bd cef1 843d 7b5d fe3d
00000260: fcf4 00bd 07cc 60be c5da 64be d6f6 49be
00000270: f1d9 8dbe 6123 fabd 1595 3a3e 8c76 c2ba
00000280: 7908 713e cf16 863e 4d82 6b3e 3a72 84bd
00000290: b726 023e 1d30 ca3d c855 293e 5751 6ebe
000002a0: d89a 773e 8eef 5dbe a724 3a3e 1955 69be
000002b0: 19b2 12be 7db0 2d3d 03d6 c6bd 4113 2fbe
000002c0: 32f7 053c 5b8b f73c 51f8 723e b7fb 163d
000002d0: daf2 c83d c225 4b3d be0b 8ebd 1341 063e
000002e0: e92e 0abe 4975 a5bd a1e4 573e d2c1 e6bc
000002f0: d177 21be 455d 5c3d b268 803e fa0e 0abe
00000300: b21f 50be f08a fc3d 3c79 4a3d c72b 913c
00000310: c1c9 4ebc 34ff 443e 6faf a83d 170d 3f3e
00000320: 718a efbb 8e0b 4ebe 2328 ccbd b2cc 713d
00000330: 9b64 e93c f126 9cbe c6a7 2ebe db37 4cbe
00000340: b40e 893e 3678 b23c 6e15 713d 95f4 8ebd
00000350: 9e42 2fbe 11c9 d73d bb03 373d f725 5e3d
00000360: e3a4 4abe 976a 84bd 88a5 5fbe 973e 00be
00000370: 6e70 46be cae9 17be 3a86 0abe b340 92be
00000380: ed8c 75be ac85 813e 6e78 90be 2e5f 86bd
00000390: ef93 9abd d6f2 20be 7653 e53d 94f2 54bd
000003a0: 329c 473e 7189 8e3e bd52 7cbe 5831 063d
000003b0: 5ba7 df3d 14b5 863e d0e4 75be e52f 58be
000003c0: 64a0 c93c a173 603d 9b79 83be 7731 4c3e
000003d0: c852 51be 4a33 59be bc8c cb3d 9b8c 8abe
000003e0: 8914 513e a546 533c 6e82 5dbe be28 1cbd
000003f0: c2fc 44be cfdd 75be 1f48 0a3e d7f0 dabd
0.27524894 0.30490527 0.00031770824 -0.24799949 -0.17046331 -0.17767212 0.05975887 0.18013598
-0.23082963 -0.13640817 -0.22424515 -0.009521675 0.082362145 0.30723816 0.2721921 0.21607314
-0.09893593 -0.0728953 -0.2671941 -0.19802116 0.16452035 0.26656145 0.19344003 -0.005721283
0.114430115 -0.09652146 -0.09101694 -0.31859064 -0.04919183 0.15182951 0.17918596 -0.1548428
-0.060950343 0.1874548 0.24337831 0.08170843 -0.06658142 -0.02281082 0.18616575 0.2214737
-0.16985166 0.1078159 -0.25494722 0.22390774 -0.036682986 0.013459032 0.24805458 0.04032652
0.23747244 0.064069524 0.11362562 -0.259135 -0.18757623 0.10185567 0.00739748 0.14696072
0.102910124 -0.25404945 -0.05222587 -0.1698957 -0.08562731 -0.097009204 -0.03854758 0.0075602145
0.029377205 0.008543101 -0.12979239 0.099736914 -0.08770804 0.1718011 0.101337425 0.24143922
0.20136061 -0.0493378 0.096519604 -5.8313788e-05 0.25395954 -0.11436922 0.26749846 0.24458028
0.06713632 -0.14659661 0.19141053 -0.27959594 -0.23696522 -0.12573439 -0.10928386 0.22612293
0.19249721 0.17425849 0.18601556 0.2982537 0.09894437 -0.1270755 0.03513995 0.075279884
0.16590574 -0.027530733 0.11461206 0.18996884 0.0063742916 0.27818146 0.03817486 0.24940054
-0.12020213 0.029620253 0.089945555 -0.18844269 -0.004244866 -0.025160706 0.061254337 -0.029940708
0.14725965 -0.09018311 -0.10691789 0.13518412 -0.16955669 0.16233654 -0.2781991 0.06070688
0.25428835 -0.15015154 0.16822082 0.23322903 -0.2248239 -0.18630594 -0.280788 0.00318995
-0.23079695 0.022820607 -0.0805002 0.03750828 -0.051200382 0.008370697 0.14869249 0.04529983
-0.22373033 0.070157684 -0.018370142 -0.19148941 0.28200746 0.11616832 -0.07715974 0.17894836
-0.16842858 -0.010458699 -0.05850071 0.30564627 0.15860762 -0.035235718 0.06491433 0.12420174
-0.031483635 -0.2195283 -0.22349079 -0.19723067 -0.2770534 -0.12213779 0.18220933 -0.0014836355
0.23538388 0.26189277 0.22998925 -0.064670995 0.12710081 0.09872458 0.16536629 -0.23273216
0.24180162 -0.21673414 0.18178044 -0.22786368 -0.14325751 0.04240464 -0.09708788 -0.17097189
0.008176612 0.030217817 0.23727538 0.036861148 0.09811945 0.049596556 -0.069358334 0.13110761
-0.13494457 -0.08079011 0.21083309 -0.028168593 -0.15768363 0.053799886 0.25079876 -0.13482276
-0.20324591 0.12331188 0.049432024 0.01772107 -0.012621344 0.19237977 0.08236586 0.18657337
-0.0073102047 -0.20121595 -0.09968593 0.059033103 0.028490355 -0.3049846 -0.17056188 -0.19943182
0.2676903 0.021785837 0.058858328 -0.06980244 -0.17115256 0.10536397 0.044681292 0.054235425
-0.19789462 -0.06465643 -0.21840489 -0.12523876 -0.19378826 -0.14835277 -0.13527766 -0.28564987
-0.2397954 0.25297296 -0.2821688 -0.06561123 -0.07547747 -0.15717635 0.111975595 -0.051989153
0.19493178 0.27839234 -0.24640937 0.0327619 0.109205924 0.26310027 -0.24013066 -0.2111202
0.024612613 0.054797772 -0.25678715 0.19940744 -0.20441735 -0.21210971 0.09938952 -0.27060398
0.2041799 0.012895261 -0.21631786 -0.038124792 -0.19237044 -0.24010395 0.13504075 -0.10690468

conv3.att_dst f4 [1, 4, 64]
00000000: 4721 583e 030b 433e 68f9 913e b38e ea3d
00000010: 7803 f3bb 0a42 54be 89e1 ff3d cf58 753e
00000020: 620f 08be 40b7 f63d 078d 51bd caeb 5abe
00000030: 23d2 813d a71f f43d 5bfa 26be adbd 9cba
00000040: d3fc 2fbe c1eb 0dbe af78 163e a2dc 693d
00000050: 4c31 cebd 919c 80bd bfd0 58bd ad4a 853e
00000060: b477 993e 955a 9c3b c5f8 4d3e 3e0d 933e
00000070: c643 073e fdc7 663d 3efe 21be b6a9 8fbc
00000080: cfab 0b3e f269 04be 9489 623e ebdc 8e3e
00000090: f474 9abe ce80 79be 2c84 c7bd 5c96 eabd
000000a0: 06a2 953e ae8b 7dbe 8fae 86be 691e e7bd
000000b0: f970 703e 680f f83d c993 f43c cd3b 8e3e
000000c0: 3867 53be 576a 333d 0ff8 883e c465 cc3c
000000d0: e3ec e4bd e074 febd ecf4 ecbd 4c3b 0b3e
000000e0: 0b03 a73d cc0e 883c 7361 943d a48a 103d
000000f0: 98ac 443e 547a 933e e893 b13d 9a6f b6bd
00000100: c13f c7bd 9747 10bd 4a7f 3b3e c291 d83c
00000110: 9d6a 9f3e 6332 713e a9f1 5bbe 97c4 2c3d
00000120: b087 9a3d ce28 023e eda6 7e3e 2181 7ebe
00000130: 683c 9dbe bdf1 923e 6e54 1cbe 2984 68bd
00000140: 8d3e 19be 86d0 81be 9096 563e 3a33 62bc
00000150: d969 aa3d d040 983b d5b7 65be 47c8 7f3e
00000160: 4f2f 91be 6556 3fbe b34b 0d3c 793f 2ebe
00000170: 5bb8 66be 0d4e 163e 7adf 08bd 9159 46bd
00000180: 8077 a83d 89b8 a9bd c493 103e 50aa 953e
00000190: 6592 67bd 6b3f b13d d6c6 683c 03f4 cfbc
000001a0: 1744 71be 2e47 cfbd 0eba babd 77c7 913e
000001b0: 11df ff3d 27af 7c3e 4339 ddbd c32a d23d
000001c0: f065 d43c 9199 84be e534 38be 5fec 0c3e
000001d0: 3f51 a3bd ddef 333d f75c 72be 9125 e9bd
000001e0: 15a0 403e 591a 013e caac 6e3d bb90 563e
000001f0: cf36 713e ed93 d5bd 36c4 dc3d c381 273e
00000200: d08a f5bd 2d28 693e 541a 813e 6c93 58be
00000210: 51ce 053e 865d 13bd 4e19 7f3e e683 22bd
00000220: 2f12 08bd 6827 44be 9561 dfbb 2206 213d
00000230: 4d08 a1bd da1a 3dbd 72bb 13be b2aa 4d3e
00000240: bbd6 ea3d 7139 0abe f78d 55be c150 85be
00000250: 148a 833d 81c1 343d e8e9 693e e142 8ebc
00000260: 422e 8c3e 612b 8d3d 3c13 983e af58 8d3d
00000270: 9b7e 4e3d c9a3 8dbd 34d7 253e 86d5 62be
00000280: 9722 8a3e e82a 413e de24 903e 9c39 91bd
00000290: bf0c 78be 9ef1 d6bc 5909 92be 8a36 853e
000002a0: 7b59 3fbe 5e1e 763b a00f 35be 5500 7bbd
000002b0: d587 d33c aec6 f2bc 1a96 c3bd 8f8f 23be
000002c0: 7855 8f3e b204 bd3d fe8e 193d ad1e 8bbe
000002d0: 5975 91be dc88 353e 5f51 9a3d 7330 dbbd
000002e0: 511a a5bd 51ca 0cbc 2f80 773d 82ef 683e
000002f0: 5568 2b3c 7c07 dabd cdf1 333c eaf2 f33d
00000300: 549d 51bd 3e7a 98bb d789 473e 9e46 dd3d
00000310: 99ec 28be 69ff 893e 771d 23be f9fb 5b3e
00000320: 2a0c cabd af35 783e 5960 80be 704f 773d
00000330: 21c7 3c3e 53b0 5ebe a991 22bb 63bf 863e
00000340: bcf5 863e df1f 70bc 6076 0a3e 8ce8 a6bc
00000350: d9b0 d9bd 4914 a03e fe0b 9f3d 5241 423b
00000360: 1f96 8d3e a0fd 4ebe cfba 493e 7465 473d
00000370: 5aef 5b3e 6b02 e6bd 52bf 83be 61f5 27bd
00000380: 8b2e aa3d 289e df3d 97e9 5abe 5ffe 94be
00000390: dc52 8c3e 9818 953e 73f6 fbbd 7769 41be
000003a0: 88f0 99bd 88e0 dbbd b6a0 853e 2c11 143e
000003b0: eaa6 2e3e 2be9 39be 662e 3d3b 8966 63be
000003c0: 754e 37be 532e 513e 0f1d 893e c502 ad3d
000003d0: d4ba 833e e63c 923e abc0 7b3e 3ebb 563d
000003e0: 9fd9 34be db7d 3e3e 120a 93be a413 73be
000003f0: ca7f 22be 21a0 f1bc 3e36 503d cdd8 4d3e
0.21106444 0.1904717 0.28510594 0.11452999 -0.007416185 -0.20728317 0.12494189 0.23959659
-0.13287118 0.12046671 -0.051159885 -0.21379009 0.063389085 0.119201 -0.1630644 -0.0011958383
-0.17186289 -0.13859464 0.14694475 0.057095177 -0.100679964 -0.06279863 -0.05293345 0.26033536
0.2997414 0.0047715404 0.2011443 0.2872104 0.13209447 0.056343067 -0.15819642 -0.01753698
0.13639759 -0.1293104 0.22122794 0.27902922 -0.30167353 -0.24365541 -0.09742007 -0.1145446
0.29225177 -0.24760315 -0.26305053 -0.11285097 0.23480596 0.121123135 0.029855626 0.2778
-0.20644844 0.043802585 0.26751754 0.02495087 -0.11177995 -0.12424636 -0.11570153 0.13596839
0.08154877 0.016608618 0.072451495 0.035288468 0.19206464 0.28804266 0.08670789 -0.08908005
-0.09728957 -0.035224523 0.18310276 0.02643669 0.31136027 0.23554377 -0.21478905 0.04217967
0.075454116 0.12710878 0.24868365 -0.24853946 -0.3071015 0.28700057 -0.15266582 -0.056766663
-0.14965267 -0.25354403 0.20955873 -0.013806159 0.0832097 0.004646398 -0.22433408 0.24978743
-0.28356406 -0.186853 0.008624005 -0.170164 -0.22531264 0.14678212 -0.03341625 -0.04842526
0.08225918 -0.082871504 0.14118868 0.292315 -0.056536097 0.08654674 0.014207562 -0.025384909
-0.2356113 -0.10120998 -0.09117518 0.28472492 0.124937184 0.2467619 -0.108019374 0.102620624
0.025927514 -0.25898412 -0.17988928 0.13762043 -0.07974481 0.043929923 -0.23668276 -0.11384118
0.18811066 0.12607707 0.058270253 0.20953648 0.23556064 -0.10428605 0.10779612 0.16358094
-0.11989367 0.22769232 0.252154 -0.21149987 0.13066985 -0.035977863 0.24911997 -0.03967657
-0.033220466 -0.19155657 -0.0068170526 0.03931249 -0.078629114 -0.046168186 -0.14426973 0.20084646
0.11466738 -0.13498475 -0.20854937 -0.26038173 0.06422821 0.044129852 0.22843134 -0.017365875
0.27379042 0.068930395 0.29702175 0.06901681 0.05041371 -0.06916005 0.16195375 -0.22151765
0.26979515 0.18864024 0.28153127 -0.07091066 -0.24223612 -0.026238259 -0.28522757 0.26018173
-0.18686478 0.0037554721 -0.17681742 -0.061279614 0.025821606 -0.029635753 -0.09550114 -0.15972732
0.27994895 0.09229411 0.037489884 -0.2717184 -0.28409842 0.17727989 0.075350516 -0.107026
-0.0806166 -0.008593158 0.06042498 0.22747615 0.010461886 -0.10645959 0.010982943 0.119115666
-0.05117543 -0.0046532443 0.19486175 0.10804485 -0.16496505 0.26952675 -0.15929209 0.21482839
-0.09865601 0.24239229 -0.25073507 0.060378492 0.18435337 -0.2174695 -0.0024806058 0.2631789
0.26359355 -0.014656036 0.13521719 -0.020374559 -0.10629434 0.31265476 0.07765959 0.0029640985
0.27653596 -0.20213938 0.19700168 0.048680738 0.21478024 -0.1123093 -0.25731903 -0.041005496
0.083096586 0.10918838 -0.2137817 -0.2910032 0.27406967 0.29120326 -0.12302866 -0.18887888
-0.07516581 -0.10736185 0.26099175 0.14459676 0.1705586 -0.18155353 0.0028866767 -0.22207083
-0.17901023 0.20427828 0.26779982 0.08447794 0.25728476 0.28562087 0.24585216 0.05242466
-0.17661141 0.18602698 -0.2871862 -0.23737961 -0.1586906 -0.0294953 0.05083298 0.20102234

conv3.bias f4 [64]
00000000: 3d8a ea39 b8ee b4bb bd02 d43c 31da bdbc
00000010: c6cc 133d 801a 21bb 1bab 8dbc 6f2c d43c
00000020: f3ef e7bc 579b 39bc dcb4 4c3c 0f0c c7bc
00000030: d9f7 87bc 9a99 a3bc 084f 01bc dc69 0d3d
00000040: 3fd6 0d3d 72bd 90bc ce9f 003b b559 52bd
00000050: bf0d d63c ee64 f83c f269 0fbd 5723 fd3d
00000060: 1127 ca3b e647 133d 2e53 863c 65c8 ce3c
00000070: 2a33 7d3a 6ff2 e6bc 9418 af3b 6395 543a
00000080: 4244 3b3b da92 f3bc aed0 b4bc 6eed 01bc
00000090: e545 c13b b1cf f03c c8f1 9ebc f172 033d
000000a0: ee78 41bc 7818 bcbc 60d9 173d 6e95 163d
000000b0: 965d 0cbc ff79 d2bb cf1b 823c 77f1 76bb
000000c0: d7c1 3ebc d214 25bc e6db 323b ac88 b8bc
000000d0: ec61 2a3d c5d5 fb3c 1327 263d 96c9 03bc
000000e0: 6914 eabb f0a7 10bc c537 5e3b 0c09 78b9
000000f0: 9910 89bb 339f fbbc 2a93 cf3c 71f3 21bc
0.00044734954 -0.0055216216 0.025880212 -0.02317533 0.03608396 -0.0024582446 -0.017293504 0.025900094
-0.028312659 -0.01132854 0.012494292 -0.024297742 -0.016597675 -0.019970704 -0.007892378 0.034524783
0.03462815 -0.01766846 0.00196265 -0.051355083 0.026129602 0.030321565 -0.035013147 0.12360256
0.006169208 0.03595724 0.016397085 0.02524204 0.0009658808 -0.028191773 0.005343506 0.00081094186
0.002857462 -0.02973311 -0.022072162 -0.007930143 0.0058982247 0.02939591 -0.0194024 0.03209204
-0.011808617 -0.022960886 0.03707254 0.0367636 -0.0085672345 -0.0064232345 0.0158824 -0.0037680545
-0.011642895 -0.010075765 0.0027291714 -0.022526108 0.04159729 0.030741582 0.040564608 -0.008043667
-0.0071435464 -0.008829102 0.0033907753 -0.00023654493 -0.004182887 -0.03071556 0.025338728 -0.009884701

conv3.lin.weight f4 [256, 64]
00000000: 1329 32bb e834 73bd 42e8 933c b601 cb3d
00000010: aacd c2bd 726c a7bd ec4e e0bb 788d 2f3d
00000020: d08d 80bc 8bea 033e 5803 c3bd 825d 03be
00000030: 2cbf ebbd ca62 13be 3ed2 f03a 711a b6bd
00000040: 0b1f 043d a960 303d 1995 f6bc 8db8 a6bd
00000050: 5aa1 c9bd be2e c4bd 3123 12bd 97a6 6c3c
00000060: e3e7 823d 4589 1bbe 7c4e 09bd 294d 2ebe
00000070: 70c8 94bb 3b6c b4bd 41d7 a83c c9ab fa3c
00000080: 373f ed3d 9731 a53d dd9f 18bc 95c1 b2bd
00000090: 1732 e0bd 6ecb 293c e9a3 92bc 69fb 843d
000000a0: a796 273d c234 d6bd 9190 7ebd 4381 09be
000000b0: 11df fc3d 0226 da3b 2d78 013c 349f 5bbd
000000c0: 281a 81bd 8221 b0bd 6ccf a33c 1e7a 56bd
000000d0: ed5a ecbd ce30 fb3c f3e7 69bd b26e c33d
000000e0: c40e 37bd 2c89 7cbd 3cb8 aebd fc01 8a3d
000000f0: 5ea7 b2bd 2447 01be c4f3 84bc 4918 17bd
00000100: abde 03be 22c4 61bd f698 5c3d 3b53 7dbd
00000110: f3ba 54bd 84f4 5cbd 780d 22be 00f1 32bb
00000120: 3489 5abd 127a 85bd e032 a7bd f350 82bd
00000130: 4efc 1cbd ff5a 333d 8910 8bbd a813 6839
00000140: 4cd4 093c 3007 713d 14d7 97bb 153a 0dbe
00000150: 9648 353d 0456 08be 8e7c 07be 60a6 69bd
00000160: fbbd 1a3d 4dea 3abe 74a7 e5bd 3471 1dbe
00000170: cc08 cc3c e5c9 edbd 3862 10be 673e 363d
00000180: 10ed 373d 6da5 42bd e71a 123d 82a9 01be
00000190: 3ecd aa3d e79d 7b3c 4679 8dbc 5e3b d6bd
000001a0: 87e6 69bd 0f3d 323d 654c a83d b0c8 d53d
000001b0: 6446 8c3d a731 db3d 6f7f 74bd c1de a83d
000001c0: 9c57 2c3d c4ee af3d 9d76 f5bd a55d cfbd
000001d0: 8244 463d 84fe 623d 1386 8e3d 0f47 7abd
000001e0: 6584 c83d 2fee ecbd 09bf f7bd bb05 e63b
000001f0: 450d 003e 0334 18bb ebf3 19be ef06 3abd
00000200: 94e5 9dbd 2eb8 90bc 1fcd 7cbd 044b 323d
00000210: 0db6 6c3d aa01 0e3e dfc4 aebd 31a9 8cbd
00000220: 5c5f afbd 8076 a23d 4595 6c3d 0ec9 88bd
00000230: 2c88 2d3d 9252 e6bb c94b d2bd 384e 9e3d
00000240: 7aa6 b93d f98b d0bd 29d6 b4bd 66db 1dbd
00000250: 5e60 7a3c 8978 2dbd 9ffb f2bb adde ca3d
00000260: 7e5c 24bd d5dc babd e2e0 103e f1d2 f2bb
00000270: 1106 7cbd 5282 473d 5ec9 693d 2822 063e
00000280: 46f6 9ebd bc35 7c3d a7de f93d 4b17 d2bb
00000290: 9139 45bc d546 8a3d f61d c5bd 02af f1bb
000002a0: 9713 b23a 6866 7f3c 5756 363d ec45 8abd
000002b0: 5cf0 063e 11d9 013d 502f febc 6fb1 a43d
000002c0: 7a99 7dbd 802e 663d ee0e b5bc 876a 083e
000002d0: 22f7 fc3d acc9 bb3d 2440 053e 42e1 c4bd
000002e0: 6a2c c0bd c71c f53d ed86 2fbd db37 fabd
000002f0: 9d07 793d c900 df3d abe3 15bd 297b e8bc
00000300: 1058 e1bd 50c8 d4bd c702 fc3d 1e57 98bd
00000310: 2af1 71bd 47ff 07be 83a8 fabd 5ea1 afbd
00000320: 2249 fcbc f846 43bd 405e fc3c 5974 d3bb
00000330: 946e 1b3d 66fb c7bd a6d8 bcbd dba6 d6bd
00000340: 7ac7 7abd 395e da3d 0311 0dbe 49c8 1d3e
00000350: 17c9 023e b5db 62bc f639 41bd 8173 bf3d
00000360: f2f0 3c3d dd65 9a3d 7a67 f1bd 43d4 08bd
00000370: abef 8f3d 5d33 b7bd a1f3 8d39 a3ce 8c3c
00000380: b6a8 aebd 7c39 0dbd e9fb 8bbc 4b37 133d
00000390: 52d7 823d 8bc6 103d a978 b53d 5aee ecbd
000003a0: 7ee1 6bbc 2cd3 013e 8577 0d3d 2b6c bdbd
000003b0: 52f7 dd3d 8e04 a6bd 99df 91bd 0323 8fbd
000003c0: 0f82 46bd 3d3f c3bd a58d cb3d f107 823d
000003d0: 5c02 2dbe 2ce0 e4bd 1d7f b23d dbb7 b8bd
000003e0: 6337 e2bd dd04 24be 4050 ffbc a758 28bd
000003f0: e433 d0bb 0d56 263c f786 263e 3ff4 013d
-0.0027185127 -0.059376627 0.018055085 0.09912436 -0.095118836 -0.08174981 -0.0068453457 0.042859524
-0.015692621 0.1288244 -0.09522122 -0.12828639 -0.115110725 -0.14393154 0.0018373204 -0.08891762
0.032256167 0.043060932 -0.030100392 -0.08140669 -0.098452285 -0.09579228 -0.035678092 0.014444015
0.06391885 -0.15189083 -0.033522114 -0.17021622 -0.0045404956 -0.08809706 0.020610454 0.030599492
0.11584323 0.08066099 -0.009315458 -0.08728329 -0.10947054 0.010363443 -0.017900424 0.06493265
0.040915158 -0.104592815 -0.062149588 -0.13428216 0.12347234 0.006657363 0.007902187 -0.053618625
-0.06303817 -0.08600141 0.019996367 -0.052362554 -0.1154078 0.03066292 -0.05710597 0.09542598
-0.044691816 -0.061654255 -0.08531234 0.0673866 -0.08723329 -0.12624794 -0.016229518 -0.036888395
-0.1287791 -0.055118687 0.053856812 -0.061846953 -0.0519361 -0.053944126 -0.1582545 -0.0027304292
-0.053353503 -0.06517424 -0.081640005 -0.06363096 -0.038326554 0.043787953 -0.06790263 0.00022132567
0.008412432 0.058844745 -0.0046337936 -0.13791688 0.044258676 -0.13314062 -0.13231108 -0.057043433
0.037778836 -0.18253441 -0.1121358 -0.15375215 0.024906538 -0.11610774 -0.14099967 0.044493105
0.044903815 -0.047521044 0.035670187 -0.12662318 0.08339928 0.015357471 -0.017269742 -0.10460542
-0.057104614 0.04351526 0.08217696 0.10438669 0.068493634 0.1070283 -0.059691843 0.08245612
0.04207574 0.08590463 -0.11985514 -0.10125283 0.048405178 0.055418506 0.069591664 -0.061102923
0.09790877 -0.115688674 -0.12096984 0.007019726 0.12505062 -0.002322436 -0.15034454 -0.04541677
-0.07709804 -0.017665949 -0.061719056 0.04352857 0.057790805 0.13867822 -0.08533644 -0.06868208
-0.0856311 0.07932758 0.057759542 -0.06678973 0.04236619 -0.007028886 -0.10268361 0.07729763
0.09064956 -0.10182948 -0.0882991 -0.038539313 0.015281765 -0.04235128 -0.0074152495 0.09905753
-0.04012727 -0.091241516 0.14148286 -0.0074104 -0.061529223 0.048708268 0.057076804 0.13098967
-0.07761817 0.061574683 0.12200671 -0.006411468 -0.012037651 0.067517914 -0.09624855 -0.007375599
0.001358616 0.01558838 0.044515934 -0.06751618 0.13177627 0.03170115 -0.03102842 0.08041655
-0.061913945 0.05619669 -0.022101846 0.13321887 0.12351824 0.09169325 0.13012749 -0.09613277
-0.09383471 0.119683795 -0.042853285 -0.12217685 0.060798276 0.10888822 -0.036594074 -0.02837904
-0.11003125 -0.10389769 0.12305217 -0.07438491 -0.059067883 -0.13280974 -0.12239172 -0.085757
-0.030796591 -0.047675103 0.03080666 -0.0064530787 0.037947252 -0.09764747 -0.0922101 -0.10481044
-0.061225392 0.10662503 -0.1377602 0.15408434 0.12772022 -0.013846328 -0.047174416 0.093482025
0.04612822 0.0753896 -0.11787315 -0.033405554 0.07028135 -0.08945344 0.00027075133 0.017188376
-0.08528273 -0.03447865 -0.017087894 0.035941403 0.06388725 0.035345595 0.08860905 -0.115688995
-0.014397023 0.12678212 0.03453781 -0.09249147 0.10838188 -0.081063375 -0.07122726 -0.069891
-0.048463877 -0.09533546 0.09939126 0.06349171 -0.16895431 -0.1117557 0.08715651 -0.09019443
-0.110457204 -0.1601748 -0.031166196 -0.04110017 -0.006353842 0.010152352 0.16262423 0.03172707

fc1.weight f4 [32, 64]
00000000: bfff 993c 1db4 dbbd 0ab1 063e 1d3f d6bc
00000010: f3d4 c43d 9d42 dabc a508 8d3d 22a2 003e
00000020: 2e5b 50bc 358f 97ba cc3e 413d 7a28 c2bc
00000030: 217c 99bd 5aa7 813d a486 f3bd cdb6 953b
00000040: 62a4 253e 520e 843d 2172 413c 065b b9bd
00000050: c124 173d f535 98bb 4f7d 21bb 65d3 c43d
00000060: e2fe c6bd 5aa5 6a3d 0337 503d 22bc 003e
00000070: cff4 ac3d 8af8 5b3d e80e c83c da72 153e
00000080: 215d 5fbb c539 cc3d bf7c 96bc 7e0d ab3d
00000090: 1a20 94bc c6c8 d83c 48f3 b0bd 5772 5c3d
000000a0: 8079 f83d ddcc 95bc 9b0d b53d 5f1b 363d
000000b0: 99f2 0ebd 8f4b b0bc 7d69 1dbd 1f19 e6bb
000000c0: ab5a b2bd 0b77 90bd 4b50 86bc e436 243d
000000d0: a451 0fbc 4acf c5bc 6b84 8c3d f0c5 8a3d
000000e0: 78a4 2fbd fdd4 bfbc 92ae 3bbd d009 6abd
000000f0: 5ddc 743c aaac 073c 6289 d03d 3c06 06bd
00000100: d57a 633d f032 dd3d b341 e8bd fa98 b5bd
00000110: cf1a bc3d 2964 9a3d f587 d63d 59a6 9ebd
00000120: 5558 9abc 2c76 7a3d 8f21 a6bd fc18 9cbd
00000130: 253c ebbd d872 d93d a259 b43d f92d ad3d
00000140: f93e a5ba 129f 31bd 75bd fc3c a25a f2bb
00000150: 060f a63c f53f a63d 0ff8 99bd 3d27 9abd
00000160: e0f6 42bc 47df 8d3d 717d 003d 3761 c13c
00000170: 12dd 53bd 9d10 5a3d d8be 53bd 48d0 2ebd
00000180: 460d 4d3d e06a 8d3c 4b6c b2bd 193c 833d
00000190: 2d02 7c3d 4ec5 01be 3c92 853c 0927 e4bd
000001a0: 677e c33c ed2a 0abe 3838 d7bb bf94 b1bc
000001b0: 6d1e d03d ef5e 6f3d 39ce 393d dfe0 213d
000001c0: 273c 22bd f8da 08be 8d7a f9bd ef8a 743d
000001d0: 7184 743d 2d89 75bd 87b9 0dbd f4e0 673d
000001e0: 0f76 163d b6e3 5dbd b9b3 20bd d2b2 90bd
000001f0: 1527 b5bc 0a76 30bd be9c 77bd 3514 d9bd
00000200: f481 ba3d 34db 033d 2862 653d e069 f8bb
00000210: d0a4 183d 205e 92bc dc39 7d3d 0080 6238
00000220: 60cd 5abc a806 f43d a88d c6bd c40c 4bbd
00000230: b031 16bd 40dd 423c a815 00bd e21e cbbd
00000240: d40a 9f3d e687 ea3d 92b7 99bd 28d7 dabd
00000250: d0f6 ad3c fa44 cbbd 302b c73c 0033 9c3b
00000260: 5881 c8bd 427e 95bd 7894 883c ec6b cc3d
00000270: 8e6d 9abd 20ac 4a3c f0d2 f7bc 784b 9f3d
00000280: 0c01 413d 0067 a5bc 00fc edbb 68e3 53bd
00000290: cccf 55bd ac6b d9bd ac9a 873d 0857 9c3c
000002a0: 0ac9 ddbd 7e80 d7bd 68ce cbbd f04b 96bd
000002b0: bcdf 5dbd d874 013d 4873 92bc 5038 e7bc
000002c0: 1c45 dc3d c00c 293d 1e49 b33d 7071 0fbc
000002d0: e06e 633d c0bd 293c 9c96 703d 2004 a6bd
000002e0: a496 aebd ec42 d93d 907c 2bbd ecfb 063d
000002f0: d8f5 e3bc 5240 f2bd 249e 7c3d 2615 95bd
00000300: 5232 91bd da21 bb3c fd29 06bc 3b77 0dbd
00000310: eff1 02be 6e54 00be daa4 b03c 89c2 92bd
00000320: 29af 8639 ad0d c73c 53cf 2d3d 4de3 e33d
00000330: 9050 f9bd 6bf8 98bc 566c fcbd 7269 b73d
00000340: 6afc a33d 30d4 a53c 99bb a5bd 2b8b 95bd
00000350: 3f64 eb3b 7904 9fbd e9b4 843d 9c5b 9a3d
00000360: 8c29 b83d fb02 e33c 6700 57bd e72d 933c
00000370: a425 41bd 4fdc 963d 142b 893d f4ee e7bd
00000380: 59af be3c 92e7 8e3d d553 84bd 24da b93d
00000390: 2cec ccbd 3419 e9bd 1b7c efbd 127d a9bd
000003a0: 80cf cf3d 9b1f 003c 5570 7a3d 5696 ccbc
000003b0: a85a cabd 7669 5b3d 9b54 663d fa74 d3bc
000003c0: c5b7 c7bd 767b bbbd 6235 983d 872a ee3c
000003d0: 4f11 56bd 0a4e b9bc 6579 24bd bc8d 14bd
000003e0: ca6a aa3c 1634 c9bc 5b44 b6bd b5f3 b4bd
000003f0: 0465 cdbd 09d7 1e3d 66b6 a2bd 8fd4 9b3d
0.018798707 -0.10727713 0.13153473 -0.026153142 0.09610929 -0.026643092 0.068864144 0.12561849
-0.012717051 -0.0011563065 0.04717903 -0.023700941 -0.07494379 0.06330748 -0.11890915 0.0045689107
0.16175988 0.06448044 0.011806996 -0.090505645 0.036900286 -0.004645104 -0.002464134 0.09610633
-0.09716584 0.057286598 0.050833713 0.12571767 0.08445131 0.053703822 0.02442117 0.14594594
-0.0034082609 0.09971956 -0.01837003 0.08352183 -0.018081713 0.026462924 -0.08640152 0.05381998
0.12132549 -0.018286163 0.08840486 0.044459697 -0.034899328 -0.021520404 -0.03843068 -0.0070220376
-0.087087 -0.07053956 -0.016395709 0.04009141 -0.008747492 -0.024146695 0.06861194 0.06776035
-0.04288146 -0.02341699 -0.04582078 -0.057138264 0.014945117 0.008280912 0.10182454 -0.03272079
0.055537064 0.10800731 -0.11340656 -0.088670686 0.09184801 0.07538635 0.104751505 -0.07746572
-0.018840948 0.061147854 -0.081118695 -0.07621953 -0.11486081 0.10617608 0.088061586 0.08456034
-0.0012607268 -0.043364592 0.030852059 -0.007396058 0.020270836 0.081176676 -0.075180165 -0.07527015
-0.01189968 0.069273524 0.03136963 0.023605926 -0.0517245 0.0532385 -0.051695675 -0.0426791
0.050061487 0.017262876 -0.087120615 0.06407947 0.061525512 -0.12672922 0.016305082 -0.11140258
0.023863984 -0.13492937 -0.006567981 -0.021677373 0.10162053 0.058440145 0.045362685 0.039521094
-0.039608147 -0.1336478 -0.12181578 0.05970281 0.05969662 -0.059945274 -0.03460076 0.056611016
0.036733683 -0.05417224 -0.039233897 -0.07065357 -0.022113362 -0.04308132 -0.060452215 -0.10599557
0.09106818 0.03219147 0.056001812 -0.0075809807 0.037266552 -0.017867148 0.061822757 5.4001808e-05
-0.013354629 0.11915332 -0.096949875 -0.04957272 -0.03666848 0.01189357 -0.031270653 -0.09918
0.07765737 0.11451702 -0.075057164 -0.10685569 0.021235853 -0.099252656 0.024312586 0.004766822
-0.09790295 -0.072994724 0.016672358 0.09981522 -0.07540427 0.012370139 -0.03025195 0.077780664
0.04712014 -0.020190716 -0.0072627068 -0.051730543 -0.052200124 -0.1061624 0.06621298 0.019084468
-0.10829361 -0.10522555 -0.09951478 -0.07338703 -0.054168448 0.03160557 -0.017877236 -0.028225094
0.10755369 0.041271925 0.0875418 -0.008755073 0.05552566 0.010360181 0.058737382 -0.081062555
-0.08524826 0.106084675 -0.04186684 0.032955095 -0.027827188 -0.118286744 0.061674252 -0.07279424
-0.07089676 0.02284329 -0.008188722 -0.034537535 -0.12787603 -0.12532207 0.021562982 -0.07166011
0.00025688976 0.024298513 0.042434048 0.111273386 -0.12173569 -0.018673142 -0.12325351 0.08955659
0.080071285 0.02024278 -0.08092422 -0.07301935 0.007183581 -0.07764525 0.064798184 0.07537004
0.089922994 0.027711382 -0.052490618 0.017966224 -0.047155038 0.07366239 0.066976696 -0.113248736
0.023276972 0.06977762 -0.06461302 0.0907481 -0.10005984 -0.1138176 -0.11693593 -0.082758084
0.10146999 0.007820035 0.061142284 -0.02497403 -0.098805726 0.053567372 0.05623303 -0.025812615
-0.09751848 -0.09154408 0.07432057 0.029073013 -0.0522626 -0.02262022 -0.040154833 -0.03626798
0.020802874 -0.02456097 -0.088997565 -0.08835546 -0.10029033 0.038779292 -0.07944946 0.07608902

fc1.bias f4 [32]
00000000: b564 48bd 4320 8fbc 5e7b 9fbd 7667 dd3d
00000010: 5217 0dbe f092 963c 5a2f 90bc 198b 033e
00000020: 1ead 36bd 5351 3f39 7b7f ad3d 669c 6abd
00000030: 33c7 893d b848 15bd fb59 923d e23f 27bb
00000040: 15de 75bc e107 adbd b246 e0bd 4597 5f3d
00000050: c062 ba3c 7540 443d e6d8 06be f2b7 2e3e
00000060: a3bb e5bd f7f3 b33d 61e4 babc c03a 103d
00000070: 8480 f53d 3cd5 523d 4174 88bd 8521 f03d
-0.048924167 -0.017471438 -0.07787202 0.10810749 -0.13778427 0.018380612 -0.017600704 0.1284603
-0.04459869 0.00018245475 0.084715806 -0.05727806 0.06727447 -0.036446303 0.07146069 -0.0025520255
-0.015006562 -0.084487684 -0.10950984 0.05458762 0.022752166 0.047913034 -0.13168678 0.17062357
-0.112174295 0.08786767 -0.022813978 0.03521228 0.11987403 0.051472887 -0.06662799 0.11725143

fc2.weight f4 [1, 32]
00000000: 44a3 73bd cb15 6e3d 0001 a2bc 972c 033d
00000010: 24a8 203d 363e 9e3c c680 d53d a398 58bd
00000020: c729 14be df2f 083e 1b6f 77bd 3449 833d
00000030: ec44 6b3d 0ade c5bd 8a3f 293e 292d 9fbd
00000040: 9829 b93d d9dc f4bd b2b8 ed3d 7abc 3d3d
00000050: 72c8 943d 7d9f 8fbd 7a97 813d 50de 36bd
00000060: b0ce b53d 4d89 373d 7858 36bd bee4 c03d
00000070: 5f28 04be fe25 e2bd d760 9b3d 813e e7bd
-0.059481874 0.058126252 -0.019775867 0.032024946 0.03922285 0.019316774 0.10424952 -0.05287994
-0.14469062 0.13299511 -0.060408693 0.06410447 0.057438776 -0.09661491 0.16528144 -0.077722855
0.090411365 -0.11956186 0.116074935 0.046322323 0.072647944 -0.07012842 0.0632772 -0.044645607
0.08877313 0.044808675 -0.044517964 0.09418629 -0.12906025 -0.11042403 0.0758683 -0.112912185
